…
=============================
        SCORING v0.3
=============================
Date: 2020-02-03 12:53:31.026610
[INFO] input_shape (10, 16)
[INFO] LSTM first and last layer neurons: 15
adding core layer 0
[INFO] created DNN
loading weights: checkpoints/*
loading file checkpoints/lstm-epoch-003-files-9-10-batch-400000-500000
[33m[INFO] model summary:[0m
Model: "sequential_1"
_________________________________________________________________
Layer (type)                 Output Shape              Param #   
=================================================================
lstm_1 (LSTM)                (None, 10, 15)            1920      
_________________________________________________________________
leaky_re_lu_1 (LeakyReLU)    (None, 10, 15)            0         
_________________________________________________________________
lstm_2 (LSTM)                (None, 10, 30)            5520      
_________________________________________________________________
leaky_re_lu_2 (LeakyReLU)    (None, 10, 30)            0         
_________________________________________________________________
lstm_3 (LSTM)                (None, 10, 15)            2760      
_________________________________________________________________
leaky_re_lu_3 (LeakyReLU)    (None, 10, 15)            0         
_________________________________________________________________
dense_1 (Dense)              (None, 10, 1)             16        
_________________________________________________________________
leaky_re_lu_4 (LeakyReLU)    (None, 10, 1)             0         
_________________________________________________________________
dense_2 (Dense)              (None, 10, 5)             10        
=================================================================
Total params: 10,226
Trainable params: 10,226
Non-trainable params: 0
_________________________________________________________________
[INFO] reading file data/SWaT2015-Attack-Files-v0.2/eval/2015-12-31_130240_112.log.part10_sorted-labeled.csv
[INFO] process dataset, shape: (500000, 18)
[33mdropping column: modbus_value[0m
…
