…
2020-02-06 22:18:43.192552: I tensorflow/compiler/xla/service/service.cc:176]   StreamExecutor device (0): Host, Default Version
WARNING:tensorflow:Large dropout rate: 0.8 (>0.5). In TensorFlow 2.x, dropout() uses dropout rate instead of keep_prob. Please ensure that this is intended.
[INFO] adding core layer 0
[INFO] created DNN
loading weights: checkpoints/*
loading file checkpoints/dnn-epoch-003-files-0-1
[33m[INFO] model summary:[0m
Model: "sequential_1"
_________________________________________________________________
Layer (type)                 Output Shape              Param #   
=================================================================
dense_1 (Dense)              (None, 10)                460       
_________________________________________________________________
leaky_re_lu_1 (LeakyReLU)    (None, 10)                0         
_________________________________________________________________
dropout_1 (Dropout)          (None, 10)                0         
_________________________________________________________________
dense_2 (Dense)              (None, 50)                550       
_________________________________________________________________
leaky_re_lu_2 (LeakyReLU)    (None, 50)                0         
_________________________________________________________________
dropout_2 (Dropout)          (None, 50)                0         
_________________________________________________________________
dense_3 (Dense)              (None, 10)                510       
_________________________________________________________________
leaky_re_lu_3 (LeakyReLU)    (None, 10)                0         
_________________________________________________________________
dropout_3 (Dropout)          (None, 10)                0         
_________________________________________________________________
dense_4 (Dense)              (None, 1)                 11        
_________________________________________________________________
leaky_re_lu_4 (LeakyReLU)    (None, 1)                 0         
_________________________________________________________________
dropout_4 (Dropout)          (None, 1)                 0         
_________________________________________________________________
dense_5 (Dense)              (None, 2)                 4         
=================================================================
Total params: 1,535
Trainable params: 1,535
Non-trainable params: 0
_________________________________________________________________
[INFO] reading file data/SWaT_Dataset_Attack_v0-fixed-zscore-eval.csv
[INFO] process dataset, shape: (112419, 46)
dropping all time related columns...
[INFO] columns: Index([' Timestamp', 'FIT101', 'LIT101', ' MV101', 'P101', 'P102', ' AIT201',
…
