…
        SCORING v0.4.1 (binaryClasses)
=================================================
Date: 2020-02-07 21:36:21.300466
[INFO] input_shape (10, 16)
[INFO] LSTM first and last layer neurons: 2
[INFO] adding core layer 0
[INFO] created DNN
loading weights: checkpoints/*
loading file checkpoints/lstm-epoch-003-files-8-10-batch-0-1000000
[33m[INFO] model summary:[0m
Model: "sequential_1"
_________________________________________________________________
Layer (type)                 Output Shape              Param #   
=================================================================
lstm_1 (LSTM)                (None, 10, 2)             152       
_________________________________________________________________
dropout_1 (Dropout)          (None, 10, 2)             0         
_________________________________________________________________
lstm_2 (LSTM)                (None, 10, 4)             112       
_________________________________________________________________
dropout_2 (Dropout)          (None, 10, 4)             0         
_________________________________________________________________
lstm_3 (LSTM)                (None, 10, 2)             56        
_________________________________________________________________
dropout_3 (Dropout)          (None, 10, 2)             0         
_________________________________________________________________
dense_1 (Dense)              (None, 10, 1)             3         
_________________________________________________________________
dropout_4 (Dropout)          (None, 10, 1)             0         
_________________________________________________________________
dense_2 (Dense)              (None, 10, 2)             4         
=================================================================
Total params: 327
Trainable params: 327
Non-trainable params: 0
_________________________________________________________________
[INFO] reading file data/SWaT2015-Attack-Files-v0.4-minmax/eval/2015-12-31_130240_112.log.part10_sorted-labeled.csv
[INFO] process dataset, shape: (500000, 18)
[33mdropping column: modbus_value[0m
…
