…
indices (array([], dtype=int64),)
y_vector [[1. 0. 0. 0. 0.]
 [1. 0. 0. 0. 0.]
 [1. 0. 0. 0. 0.]
 ...
 [1. 0. 0. 0. 0.]
 [1. 0. 0. 0. 0.]
 [1. 0. 0. 0. 0.]]
z vector sum [100000.      0.      0.      0.      0.]
[INFO] creating train/test split: 0.5
--------SHAPES--------
x_train.shape (50000, 15)
x_test.shape (50000, 15)
y_train.shape (50000, 5)
y_test.shape (50000, 5)
Model: "sequential_1"
_________________________________________________________________
Layer (type)                 Output Shape              Param #   
=================================================================
dense_1 (Dense)              (None, 2)                 4         
_________________________________________________________________
dropout_1 (Dropout)          (None, 2)                 0         
_________________________________________________________________
dense_2 (Dense)              (None, 4)                 12        
_________________________________________________________________
dropout_2 (Dropout)          (None, 4)                 0         
_________________________________________________________________
dense_3 (Dense)              (None, 2)                 10        
_________________________________________________________________
dropout_3 (Dropout)          (None, 2)                 0         
_________________________________________________________________
dense_4 (Dense)              (None, 1)                 3         
=================================================================
Total params: 29
Trainable params: 29
Non-trainable params: 0
_________________________________________________________________
[INFO] fitting model
[EXCEPTION] (<class 'ValueError'>, ValueError('Input arrays should have the same number of samples as target arrays. Found 750000 input samples and 250000 target samples.',), <traceback object at 0x7fa7982e4848>)
…
