…
z vector sum [256000.      0.]
[INFO] creating train/test split: 0.25
--------SHAPES--------
x_train.shape (192000, 107)
x_test.shape (64000, 107)
y_train.shape (192000, 2)
y_test.shape (64000, 2)
[INFO] using LSTM layers
--------RESHAPED--------
x_train.shape (12000, 16, 107)
x_test.shape (4000, 16, 107)
y_train.shape (12000, 16, 2)
y_test.shape (4000, 16, 2)
Model: "sequential_1"
_________________________________________________________________
Layer (type)                 Output Shape              Param #   
=================================================================
lstm_1 (LSTM)                (None, 16, 2)             880       
_________________________________________________________________
dropout_1 (Dropout)          (None, 16, 2)             0         
_________________________________________________________________
lstm_2 (LSTM)                (None, 16, 4)             112       
_________________________________________________________________
dropout_2 (Dropout)          (None, 16, 4)             0         
_________________________________________________________________
lstm_3 (LSTM)                (None, 16, 2)             56        
_________________________________________________________________
dropout_3 (Dropout)          (None, 16, 2)             0         
_________________________________________________________________
dense_1 (Dense)              (None, 16, 1)             3         
_________________________________________________________________
dropout_4 (Dropout)          (None, 16, 1)             0         
_________________________________________________________________
dense_2 (Dense)              (None, 16, 2)             4         
=================================================================
Total params: 1,055
Trainable params: 1,055
Non-trainable params: 0
_________________________________________________________________
[INFO] fitting model. xtrain.shape: (12000, 16, 107) y_train.shape: (12000, 16, 2)
Train on 12000 samples, validate on 4000 samples
Epoch 1/1
 - 5s - loss: 0.6075 - tp: 191488.0000 - fp: 0.0000e+00 - tn: 192000.0000 - fn: 512.0000 - accuracy: 0.9987 - precision: 1.0000 - recall: 0.9973 - auc: 0.9996 - val_loss: 0.5293 - val_tp: 64000.0000 - val_fp: 0.0000e+00 - val_tn: 64000.0000 - val_fn: 0.0000e+00 - val_accuracy: 1.0000 - val_precision: 1.0000 - val_recall: 1.0000 - val_auc: 1.0000
…
