…
[INFO] LSTM first and last layer neurons: 2
[INFO] adding core layer 0
wrapLayerSize 2
coreLayerSize 4
numCoreLayers 1
outputLayerActivation sigmoid
output_dim 2
loss binary_crossentropy
optimizer adam
[INFO] created DNN
loading weights: checkpoints/*
loading file checkpoints/lstm-epoch-003-files-8-10-batch-900000-1000000
[33m[INFO] model summary:[0m
Model: "sequential_1"
_________________________________________________________________
Layer (type)                 Output Shape              Param #   
=================================================================
lstm_1 (LSTM)                (None, 32, 2)             152       
_________________________________________________________________
dropout_1 (Dropout)          (None, 32, 2)             0         
_________________________________________________________________
lstm_2 (LSTM)                (None, 32, 4)             112       
_________________________________________________________________
dropout_2 (Dropout)          (None, 32, 4)             0         
_________________________________________________________________
lstm_3 (LSTM)                (None, 32, 2)             56        
_________________________________________________________________
dropout_3 (Dropout)          (None, 32, 2)             0         
_________________________________________________________________
dense_1 (Dense)              (None, 32, 1)             3         
_________________________________________________________________
dropout_4 (Dropout)          (None, 32, 1)             0         
_________________________________________________________________
dense_2 (Dense)              (None, 32, 2)             4         
=================================================================
Total params: 327
Trainable params: 327
Non-trainable params: 0
_________________________________________________________________
[INFO] reading file data/SWaT2015-Attack-Files-v0.4-zscore/eval/2015-12-31_130240_112.log.part10_sorted-labeled.csv
[INFO] process dataset, shape: (500000, 18)
[33mdropping column: modbus_value[0m
…
