…
z vector sum [256000.      0.      0.      0.      0.]
[INFO] creating train/test split: 0.25
--------SHAPES--------
x_train.shape (192000, 107)
x_test.shape (64000, 107)
y_train.shape (192000, 5)
y_test.shape (64000, 5)
[INFO] using LSTM layers
--------RESHAPED--------
x_train.shape (1500, 128, 107)
x_test.shape (500, 128, 107)
y_train.shape (1500, 128, 5)
y_test.shape (500, 128, 5)
Model: "sequential_1"
_________________________________________________________________
Layer (type)                 Output Shape              Param #   
=================================================================
lstm_1 (LSTM)                (None, 128, 2)            880       
_________________________________________________________________
dropout_1 (Dropout)          (None, 128, 2)            0         
_________________________________________________________________
lstm_2 (LSTM)                (None, 128, 4)            112       
_________________________________________________________________
dropout_2 (Dropout)          (None, 128, 4)            0         
_________________________________________________________________
lstm_3 (LSTM)                (None, 128, 2)            56        
_________________________________________________________________
dropout_3 (Dropout)          (None, 128, 2)            0         
_________________________________________________________________
dense_1 (Dense)              (None, 128, 1)            3         
_________________________________________________________________
dropout_4 (Dropout)          (None, 128, 1)            0         
_________________________________________________________________
dense_2 (Dense)              (None, 128, 5)            10        
=================================================================
Total params: 1,061
Trainable params: 1,061
Non-trainable params: 0
_________________________________________________________________
[INFO] fitting model
Train on 1500 samples, validate on 500 samples
Epoch 1/1
 - 13s - loss: 1.5645 - tp: 0.0000e+00 - fp: 0.0000e+00 - tn: 768000.0000 - fn: 192000.0000 - accuracy: 0.8000 - precision: 0.0000e+00 - recall: 0.0000e+00 - auc: 0.9152 - val_loss: 1.5047 - val_tp: 0.0000e+00 - val_fp: 0.0000e+00 - val_tn: 256000.0000 - val_fn: 64000.0000 - val_accuracy: 0.8000 - val_precision: 0.0000e+00 - val_recall: 0.0000e+00 - val_auc: 0.9999
…
