…
2020-02-03 00:32:41.613737: I tensorflow/compiler/xla/service/service.cc:168] XLA service 0x7fbe0d1cc5c0 initialized for platform Host (this does not guarantee that XLA will be used). Devices:
2020-02-03 00:32:41.613757: I tensorflow/compiler/xla/service/service.cc:176]   StreamExecutor device (0): Host, Default Version
[INFO] adding core layer 0
[INFO] created DNN
loading weights: checkpoints/*
loading file checkpoints/dnn-epoch-003-files-0-1
[INFO] model summary:
Model: "sequential_1"
_________________________________________________________________
Layer (type)                 Output Shape              Param #
=================================================================
dense_1 (Dense)              (None, 5)                 80
_________________________________________________________________
leaky_re_lu_1 (LeakyReLU)    (None, 5)                 0
_________________________________________________________________
dense_2 (Dense)              (None, 10)                60
_________________________________________________________________
leaky_re_lu_2 (LeakyReLU)    (None, 10)                0
_________________________________________________________________
dense_3 (Dense)              (None, 5)                 55
_________________________________________________________________
leaky_re_lu_3 (LeakyReLU)    (None, 5)                 0
_________________________________________________________________
dropout_1 (Dropout)          (None, 5)                 0
_________________________________________________________________
dense_4 (Dense)              (None, 1)                 6
_________________________________________________________________
leaky_re_lu_4 (LeakyReLU)    (None, 1)                 0
_________________________________________________________________
dense_5 (Dense)              (None, 5)                 10
=================================================================
Total params: 211
Trainable params: 211
Non-trainable params: 0
_________________________________________________________________
[INFO] reading file data/SWaT2015-Attack-Files-v0.2/train/2015-12-28_113021_98.log.part13_sorted-labeled.csv
[INFO] process dataset, shape: (500000, 18)
dropping column: modbus_value
dropping all time related columns...
…
