…
=============================
Date: 2020-02-06 04:12:34.326479
[INFO] input_shape (10, 16)
[INFO] LSTM first and last layer neurons: 8
[INFO] adding core layer 0
[INFO] adding core layer 1
[INFO] adding core layer 2
[INFO] created DNN
loading weights: checkpoints/*
loading file checkpoints/lstm-epoch-030-files-0-1-batch-400000-500000
[33m[INFO] model summary:[0m
Model: "sequential_1"
_________________________________________________________________
Layer (type)                 Output Shape              Param #   
=================================================================
lstm_1 (LSTM)                (None, 10, 8)             800       
_________________________________________________________________
dropout_1 (Dropout)          (None, 10, 8)             0         
_________________________________________________________________
lstm_2 (LSTM)                (None, 10, 32)            5248      
_________________________________________________________________
dropout_2 (Dropout)          (None, 10, 32)            0         
_________________________________________________________________
lstm_3 (LSTM)                (None, 10, 32)            8320      
_________________________________________________________________
dropout_3 (Dropout)          (None, 10, 32)            0         
_________________________________________________________________
lstm_4 (LSTM)                (None, 10, 32)            8320      
_________________________________________________________________
dropout_4 (Dropout)          (None, 10, 32)            0         
_________________________________________________________________
lstm_5 (LSTM)                (None, 10, 8)             1312      
_________________________________________________________________
dropout_5 (Dropout)          (None, 10, 8)             0         
_________________________________________________________________
dense_1 (Dense)              (None, 10, 1)             9         
_________________________________________________________________
dropout_6 (Dropout)          (None, 10, 1)             0         
_________________________________________________________________
dense_2 (Dense)              (None, 10, 5)             10        
=================================================================
Total params: 24,019
Trainable params: 24,019
Non-trainable params: 0
_________________________________________________________________
[INFO] reading file data/SWaT2015-Attack-Files-v0.4-minmax/train/2015-12-28_113021_98.log.part13_sorted-labeled.csv
[INFO] process dataset, shape: (500000, 18)
[33mdropping column: modbus_value[0m
…
