…
optimizer sgd
------------DNN info-------------
[INFO] input_shape (128, 107)
[INFO] LSTM first and last layer neurons: 8
[INFO] adding core layer 0
[INFO] adding core layer 1
[INFO] adding core layer 2
[INFO] created DNN
loading weights: checkpoints/*
loading file checkpoints/lstm-epoch-010-files-0-50-batch-9984000-10240000
[33m[INFO] model summary:[0m
Model: "sequential_1"
_________________________________________________________________
Layer (type)                 Output Shape              Param #   
=================================================================
lstm_1 (LSTM)                (None, 128, 8)            3712      
_________________________________________________________________
dropout_1 (Dropout)          (None, 128, 8)            0         
_________________________________________________________________
lstm_2 (LSTM)                (None, 128, 32)           5248      
_________________________________________________________________
dropout_2 (Dropout)          (None, 128, 32)           0         
_________________________________________________________________
lstm_3 (LSTM)                (None, 128, 32)           8320      
_________________________________________________________________
dropout_3 (Dropout)          (None, 128, 32)           0         
_________________________________________________________________
lstm_4 (LSTM)                (None, 128, 32)           8320      
_________________________________________________________________
dropout_4 (Dropout)          (None, 128, 32)           0         
_________________________________________________________________
lstm_5 (LSTM)                (None, 128, 8)            1312      
_________________________________________________________________
dropout_5 (Dropout)          (None, 128, 8)            0         
_________________________________________________________________
dense_1 (Dense)              (None, 128, 1)            9         
_________________________________________________________________
dropout_6 (Dropout)          (None, 128, 1)            0         
_________________________________________________________________
dense_2 (Dense)              (None, 128, 5)            10        
=================================================================
Total params: 26,931
Trainable params: 26,931
Non-trainable params: 0
_________________________________________________________________
[INFO] reading file data/SWaT2015-Attack-Files-v0.4-minmax/eval/2015-12-31_130240_112.log.part10_sorted-labeled.csv
[INFO] reading file data/SWaT2015-Attack-Files-v0.4-minmax/eval/2015-12-31_181648_113.log.part08_sorted-labeled.csv
…
