…
2020-02-03 15:33:11.818618: I tensorflow/compiler/xla/service/service.cc:168] XLA service 0x7f83fecf7fb0 initialized for platform Host (this does not guarantee that XLA will be used). Devices:
2020-02-03 15:33:11.818636: I tensorflow/compiler/xla/service/service.cc:176]   StreamExecutor device (0): Host, Default Version
[INFO] adding core layer 0
[INFO] adding core layer 1
[INFO] adding core layer 2
[INFO] created DNN
loading weights: checkpoints/*
loading file checkpoints/dnn-epoch-010-files-0-1
[INFO] model summary:
Model: "sequential_1"
_________________________________________________________________
Layer (type)                 Output Shape              Param #
=================================================================
dense_1 (Dense)              (None, 500)               8000
_________________________________________________________________
leaky_re_lu_1 (LeakyReLU)    (None, 500)               0
_________________________________________________________________
dense_2 (Dense)              (None, 1000)              501000
_________________________________________________________________
leaky_re_lu_2 (LeakyReLU)    (None, 1000)              0
_________________________________________________________________
dense_3 (Dense)              (None, 1000)              1001000
_________________________________________________________________
leaky_re_lu_3 (LeakyReLU)    (None, 1000)              0
_________________________________________________________________
dense_4 (Dense)              (None, 1000)              1001000
_________________________________________________________________
leaky_re_lu_4 (LeakyReLU)    (None, 1000)              0
_________________________________________________________________
dense_5 (Dense)              (None, 500)               500500
_________________________________________________________________
leaky_re_lu_5 (LeakyReLU)    (None, 500)               0
_________________________________________________________________
dropout_1 (Dropout)          (None, 500)               0
_________________________________________________________________
dense_6 (Dense)              (None, 1)                 501
_________________________________________________________________
dense_7 (Dense)              (None, 5)                 10
=================================================================
Total params: 3,012,011
Trainable params: 3,012,011
Non-trainable params: 0
_________________________________________________________________
[INFO] reading file data/SWaT2015-Attack-Files-v0.2/train/2015-12-28_113021_98.log.part13_sorted-labeled.csv
[INFO] process dataset, shape: (500000, 18)
dropping column: modbus_value
dropping all time related columns...
…
