…
2020-02-03 00:30:10.769234: I tensorflow/compiler/xla/service/service.cc:168] XLA service 0x7fbbc105bbc0 initialized for platform Host (this does not guarantee that XLA will be used). Devices:
2020-02-03 00:30:10.769250: I tensorflow/compiler/xla/service/service.cc:176]   StreamExecutor device (0): Host, Default Version
adding core layer 0
[INFO] created DNN
loading weights: checkpoints/*
loading file checkpoints/lstm-epoch-010-files-0-1-batch-400000-500000
[INFO] model summary:
Model: "sequential_1"
_________________________________________________________________
Layer (type)                 Output Shape              Param #
=================================================================
lstm_1 (LSTM)                (None, 10, 5)             440
_________________________________________________________________
leaky_re_lu_1 (LeakyReLU)    (None, 10, 5)             0
_________________________________________________________________
lstm_2 (LSTM)                (None, 10, 10)            640
_________________________________________________________________
leaky_re_lu_2 (LeakyReLU)    (None, 10, 10)            0
_________________________________________________________________
lstm_3 (LSTM)                (None, 10, 5)             320
_________________________________________________________________
leaky_re_lu_3 (LeakyReLU)    (None, 10, 5)             0
_________________________________________________________________
dropout_1 (Dropout)          (None, 10, 5)             0
_________________________________________________________________
dense_1 (Dense)              (None, 10, 1)             6
_________________________________________________________________
leaky_re_lu_4 (LeakyReLU)    (None, 10, 1)             0
_________________________________________________________________
dense_2 (Dense)              (None, 10, 5)             10
=================================================================
Total params: 1,416
Trainable params: 1,416
Non-trainable params: 0
_________________________________________________________________
[INFO] reading file data/SWaT2015-Attack-Files-v0.2/train/2015-12-28_113021_98.log.part13_sorted-labeled.csv
[INFO] process dataset, shape: (500000, 18)
dropping column: modbus_value
[INFO] columns: Index(['unixtime', 'orig', 'type', 'i/f_name', 'i/f_dir', 'src', 'dst',
…
