…
WARNING:tensorflow:Large dropout rate: 0.8 (>0.5). In TensorFlow 2.x, dropout() uses dropout rate instead of keep_prob. Please ensure that this is intended.
[INFO] adding core layer 0
[INFO] adding core layer 1
[INFO] created DNN
loading weights: checkpoints/*
loading file checkpoints/lstm-epoch-003-files-0-50-batch-9984000-10240000
[INFO] model summary:
Model: "sequential_1"
_________________________________________________________________
Layer (type)                 Output Shape              Param #
=================================================================
lstm_1 (LSTM)                (None, 128, 16)           7936
_________________________________________________________________
dropout_1 (Dropout)          (None, 128, 16)           0
_________________________________________________________________
lstm_2 (LSTM)                (None, 128, 32)           6272
_________________________________________________________________
dropout_2 (Dropout)          (None, 128, 32)           0
_________________________________________________________________
lstm_3 (LSTM)                (None, 128, 32)           8320
_________________________________________________________________
dropout_3 (Dropout)          (None, 128, 32)           0
_________________________________________________________________
lstm_4 (LSTM)                (None, 128, 16)           3136
_________________________________________________________________
dropout_4 (Dropout)          (None, 128, 16)           0
_________________________________________________________________
dense_1 (Dense)              (None, 128, 1)            17
_________________________________________________________________
dropout_5 (Dropout)          (None, 128, 1)            0
_________________________________________________________________
dense_2 (Dense)              (None, 128, 2)            4
=================================================================
Total params: 25,685
Trainable params: 25,685
Non-trainable params: 0
_________________________________________________________________
[INFO] reading file data/SWaT2015-Attack-Files-v0.4.3-minmax-text/eval/2015-12-31_130240_112.log.part10_sorted-labeled.csv
[INFO] reading file data/SWaT2015-Attack-Files-v0.4.3-minmax-text/eval/2015-12-31_181648_113.log.part08_sorted-labeled.csv
…
