…
outputLayerActivation sigmoid
output_dim 2
loss binary_crossentropy
optimizer sgd
------------DNN info-------------
[INFO] input_shape (16, 107)
[INFO] LSTM first and last layer neurons: 16
[INFO] adding core layer 0
[INFO] created DNN
loading weights: checkpoints/*
loading file checkpoints/lstm-epoch-003-files-0-50-batch-9984000-10240000
[33m[INFO] model summary:[0m
Model: "sequential_1"
_________________________________________________________________
Layer (type)                 Output Shape              Param #   
=================================================================
lstm_1 (LSTM)                (None, 16, 16)            7936      
_________________________________________________________________
dropout_1 (Dropout)          (None, 16, 16)            0         
_________________________________________________________________
lstm_2 (LSTM)                (None, 16, 64)            20736     
_________________________________________________________________
dropout_2 (Dropout)          (None, 16, 64)            0         
_________________________________________________________________
lstm_3 (LSTM)                (None, 16, 16)            5184      
_________________________________________________________________
dropout_3 (Dropout)          (None, 16, 16)            0         
_________________________________________________________________
dense_1 (Dense)              (None, 16, 1)             17        
_________________________________________________________________
dropout_4 (Dropout)          (None, 16, 1)             0         
_________________________________________________________________
dense_2 (Dense)              (None, 16, 2)             4         
=================================================================
Total params: 33,877
Trainable params: 33,877
Non-trainable params: 0
_________________________________________________________________
[INFO] reading file data/SWaT2015-Attack-Files-v0.4.3-minmax-text/eval/2015-12-31_130240_112.log.part10_sorted-labeled.csv
[INFO] reading file data/SWaT2015-Attack-Files-v0.4.3-minmax-text/eval/2015-12-31_181648_113.log.part08_sorted-labeled.csv
…
