…
outputLayerActivation softmax
output_dim 5
loss categorical_crossentropy
optimizer adam
------------DNN info-------------
[INFO] input_shape (128, 107)
[INFO] LSTM first and last layer neurons: 2
[INFO] adding core layer 0
[INFO] created DNN
loading weights: checkpoints/*
loading file checkpoints/lstm-epoch-003-files-0-50-batch-9984000-10240000
[33m[INFO] model summary:[0m
Model: "sequential_1"
_________________________________________________________________
Layer (type)                 Output Shape              Param #   
=================================================================
lstm_1 (LSTM)                (None, 128, 2)            880       
_________________________________________________________________
dropout_1 (Dropout)          (None, 128, 2)            0         
_________________________________________________________________
lstm_2 (LSTM)                (None, 128, 4)            112       
_________________________________________________________________
dropout_2 (Dropout)          (None, 128, 4)            0         
_________________________________________________________________
lstm_3 (LSTM)                (None, 128, 2)            56        
_________________________________________________________________
dropout_3 (Dropout)          (None, 128, 2)            0         
_________________________________________________________________
dense_1 (Dense)              (None, 128, 1)            3         
_________________________________________________________________
dropout_4 (Dropout)          (None, 128, 1)            0         
_________________________________________________________________
dense_2 (Dense)              (None, 128, 5)            10        
=================================================================
Total params: 1,061
Trainable params: 1,061
Non-trainable params: 0
_________________________________________________________________
[INFO] reading file data/SWaT2015-Attack-Files-v0.4.3-minmax-text/eval/2015-12-31_130240_112.log.part10_sorted-labeled.csv
[INFO] reading file data/SWaT2015-Attack-Files-v0.4.3-minmax-text/eval/2015-12-31_181648_113.log.part08_sorted-labeled.csv
…
