…
[INFO] to_xy labeltype: normal
indices (array([     0,      1,      2, ..., 255997, 255998, 255999]),)
y_vector [[1. 0.]
 [1. 0.]
 [1. 0.]
 ...
 [1. 0.]
 [1. 0.]
 [1. 0.]]
z vector sum [256000.      0.]
[INFO] creating train/test split: 0.25
--------SHAPES--------
x_train.shape (192000, 106)
x_test.shape (64000, 106)
y_train.shape (192000, 2)
y_test.shape (64000, 2)
Model: "sequential_1"
_________________________________________________________________
Layer (type)                 Output Shape              Param #   
=================================================================
dense_1 (Dense)              (None, 2)                 212       
_________________________________________________________________
dropout_1 (Dropout)          (None, 2)                 0         
_________________________________________________________________
dense_2 (Dense)              (None, 4)                 12        
_________________________________________________________________
dropout_2 (Dropout)          (None, 4)                 0         
_________________________________________________________________
dense_3 (Dense)              (None, 2)                 10        
_________________________________________________________________
dropout_3 (Dropout)          (None, 2)                 0         
_________________________________________________________________
dense_4 (Dense)              (None, 1)                 3         
_________________________________________________________________
dropout_4 (Dropout)          (None, 1)                 0         
_________________________________________________________________
dense_5 (Dense)              (None, 2)                 4         
=================================================================
Total params: 241
Trainable params: 241
Non-trainable params: 0
_________________________________________________________________
[INFO] fitting model. xtrain.shape: (192000, 106) y_train.shape: (192000, 2)
[EXCEPTION] (<class 'ValueError'>, ValueError('Error when checking input: expected dense_1_input to have shape (105,) but got array with shape (106,)',), <traceback object at 0x7f8001b06e48>)
…
