…
Date: 2020-02-08 00:07:57.585762
[33m[INFO] using Sequential Dense layers[0m
[INFO] adding core layer 0
wrapLayerSize 2
coreLayerSize 4
numCoreLayers 1
outputLayerActivation sigmoid
output_dim 2
loss binary_crossentropy
optimizer adam
[INFO] created DNN
loading weights: checkpoints/*
loading file checkpoints/dnn-epoch-003-files-0-2
[33m[INFO] model summary:[0m
Model: "sequential_1"
_________________________________________________________________
Layer (type)                 Output Shape              Param #   
=================================================================
dense_1 (Dense)              (None, 2)                 32        
_________________________________________________________________
dropout_1 (Dropout)          (None, 2)                 0         
_________________________________________________________________
dense_2 (Dense)              (None, 4)                 12        
_________________________________________________________________
dropout_2 (Dropout)          (None, 4)                 0         
_________________________________________________________________
dense_3 (Dense)              (None, 2)                 10        
_________________________________________________________________
dropout_3 (Dropout)          (None, 2)                 0         
_________________________________________________________________
dense_4 (Dense)              (None, 1)                 3         
_________________________________________________________________
dropout_4 (Dropout)          (None, 1)                 0         
_________________________________________________________________
dense_5 (Dense)              (None, 2)                 4         
=================================================================
Total params: 61
Trainable params: 61
Non-trainable params: 0
_________________________________________________________________
[INFO] reading file data/SWaT2015-Attack-Files-v0.4-minmax/train/2015-12-28_113021_98.log.part13_sorted-labeled.csv
[INFO] process dataset, shape: (500000, 18)
[33mdropping column: modbus_value[0m
…
