…
[INFO] adding core layer 0
[INFO] adding core layer 1
[INFO] adding core layer 2
wrapLayerSize 8
coreLayerSize 32
numCoreLayers 3
outputLayerActivation sigmoid
output_dim 2
loss binary_crossentropy
optimizer adam
[INFO] created DNN
loading weights: checkpoints/*
loading file checkpoints/lstm-epoch-010-files-0-2-batch-400000-500000
[33m[INFO] model summary:[0m
Model: "sequential_1"
_________________________________________________________________
Layer (type)                 Output Shape              Param #   
=================================================================
lstm_1 (LSTM)                (None, 32, 8)             800       
_________________________________________________________________
dropout_1 (Dropout)          (None, 32, 8)             0         
_________________________________________________________________
lstm_2 (LSTM)                (None, 32, 32)            5248      
_________________________________________________________________
dropout_2 (Dropout)          (None, 32, 32)            0         
_________________________________________________________________
lstm_3 (LSTM)                (None, 32, 32)            8320      
_________________________________________________________________
dropout_3 (Dropout)          (None, 32, 32)            0         
_________________________________________________________________
lstm_4 (LSTM)                (None, 32, 32)            8320      
_________________________________________________________________
dropout_4 (Dropout)          (None, 32, 32)            0         
_________________________________________________________________
lstm_5 (LSTM)                (None, 32, 8)             1312      
_________________________________________________________________
dropout_5 (Dropout)          (None, 32, 8)             0         
_________________________________________________________________
dense_1 (Dense)              (None, 32, 1)             9         
_________________________________________________________________
dropout_6 (Dropout)          (None, 32, 1)             0         
_________________________________________________________________
dense_2 (Dense)              (None, 32, 2)             4         
=================================================================
Total params: 24,013
Trainable params: 24,013
Non-trainable params: 0
_________________________________________________________________
[INFO] reading file data/SWaT2015-Attack-Files-v0.4-minmax/train/2015-12-28_113021_98.log.part13_sorted-labeled.csv
[INFO] process dataset, shape: (500000, 18)
[33mdropping column: modbus_value[0m
…
